saved/imagenet_10_0.33_200.00_32_19.pth (torch, 679231 bytes, 20 tensors)

encoder.conv1.conv.weight f4 [16, 3, 5, 5]
00000000: 7e96 bc3d 4279 893d c895 c63c 63bd a0bc
00000010: b772 82bd 1fb8 c5bd 597b 003e f060 ef3d
00000020: f5f9 773c d02b ecbc eb0b 32be 54ce 07bc
00000030: 8edd e53d b4b5 393e 618f 033d 5cae 8dbd
00000040: 2458 3f3d bfd8 813d cf8c 5c3e 0653 083c
00000050: ace4 58bd a4b1 afbd 6345 abbd ef92 033c
00000060: 1cce a0bd 3e02 9bbd dcf9 313e cfde 30bd
00000070: d46b a0bb e5de 87bd 6f9d 8fbd 7eaf e43c
00000080: 8a3a 27bd 27e9 09bd 847d 1ebd 3117 91bd
00000090: 34ee e73c ec75 143c fce4 f23d 2886 85bd
000000a0: 2a12 d4bd 5e02 4f3b 5f19 143d ad9f 893d
000000b0: f26c 8dbc cbcf 92bd 1a5a 05be 5f83 bdbd
000000c0: 2009 d4bd e2ec 06bd 2f6d 49bc c88e c53d
000000d0: 369b 7a3d 0f04 bfbd fb44 a3bb ed78 b1bd
000000e0: 01b6 623d f4c0 283d 15bd f5bc db07 85bd
000000f0: 608b 58bd 836f 49ba 78f9 4abc 7869 0c3d
00000100: 719b 0cbe 5ac0 96bd 5440 4bbd 6564 90bc
00000110: 9657 ce3d 6d7c 76bd 299b 0cbe 4777 8dbd
00000120: 5169 2cbe ff3f 05be a33f 5cbd b751 e5bc
00000130: 39ef 15bd 6834 0d3e 136b 173e 6d90 91bc
00000140: 2ec6 283c b321 923c b31f 08be 8010 a7bd
00000150: d367 f03c b441 19bc 53e8 583b 0569 9ebc
00000160: db33 133d ac47 bdbb 0056 18bd 27d5 0d3d
00000170: 8e7d 493d 35a4 8a3c 1068 d83c 6595 0dbd
00000180: ad6a 7dbc 5f24 943c e482 383c 62f9 7dbd
00000190: 4306 6b3d 86b4 763d dcbf ed3b a130 eb3d
000001a0: 0e75 d83d a1b2 c43d 52fb 37bc 8f20 dfbd
000001b0: 8307 29bd 5b29 73bd 9d77 9f3d 4de3 1b3c
000001c0: 6dc4 7dbd 24b2 5bbd f625 253d 39c0 ce3b
000001d0: 0be5 323d 6e54 463d 9066 de3d 56da 0a3e
000001e0: b29c c7bc 00fd ca3b 919d 6e3d 9d3f ba3d
000001f0: 3dc9 ea3d 9fab 293d 811b 7fbd 7a3a 10bd
00000200: 7987 e03c 25d3 f43d 6063 9b3d c078 4cbd
00000210: ddb5 07be 82e6 a1bd 7dbe 92bd aa58 c5bd
00000220: 8294 31bc 9012 27bd a817 733c 7dc9 89bd
00000230: 2801 9bbd ba2c 84bd 2ea9 833d 11a2 c23d
00000240: d318 013d 6ce9 9dbd 26d0 29bd aa62 273d
00000250: 7874 10bc b6cc da3c fd68 323d 8917 26bc
00000260: 43ce 5cbd c7bc 09bd 4c81 b6bd e4ea ba3d
00000270: d963 03bc 448f b53d dce0 803d 3e2d 9cbc
00000280: d1df 903d f903 983d d5c8 18bd 2324 60bc
00000290: 03a4 aabd 39d0 84bc 6ed3 103d 1a67 6ebd
000002a0: 0d0d 013d 2556 693c 4115 f73a cec5 b93c
000002b0: a56f aebd feb6 59bd 7fb9 943d 2862 f0bc
000002c0: e4c8 2ebd e0cf 9d3b 6bf1 fdbc 8742 e23c
000002d0: f845 ff3c bc85 ca3c 1338 2e3e 992b e33d
000002e0: 1ebd 20bb 0bd0 ca3d e45e 973c 2243 883d
000002f0: 6795 743d 7609 853d edd8 e03c b984 cc3d
00000300: 0122 90bb b675 a23d 6ace b33d 20df b83c
00000310: 5172 813c 1bf2 4b3d aac8 7a3d a761 4d3c
00000320: ed20 1fbc a793 fcbd 1409 82bd bab0 8bbc
00000330: 788a b1bc 0f9b 70bc ccfb 8a3a f7b3 213d
00000340: 8248 893d 3447 683c 5b00 1c3c bf17 3fbc
00000350: 83d1 efbb 90fc 1b3d c523 a83c 30a3 993c
00000360: c298 11bd ce4f 683d 9ccf 84ba 9560 6d3d
00000370: c43a f5bd 9f68 70bc d80c 86bc 293c b3bc
00000380: 9d46 523d d76a 143d c4bd 703b 03ed bdbc
00000390: 3b40 773d 4581 7c3d 5164 1d3e 2606 f13c
000003a0: 438c 3a3d 8ac2 fd3d 9cf9 423d 4a1d db3d
000003b0: 2dcd 99bc 2e1a 47bd 6c6f 073d 2b77 e73d
000003c0: ec5b 173e 48c5 f2bc ff54 e33d 7d46 473d
000003d0: c5c7 003e 0399 833d cfea a93d 02b8 c13c
000003e0: 7bf8 0e3e 5398 ba3d 8e57 123c 9f42 c4bd
000003f0: 1dc9 3abb 7239 bdbc c2ac bc3c 2f0b a63d
0.092083916 0.06712581 0.024241343 -0.019621557 -0.06369536 -0.09654259 0.12547053 0.11688411
0.015135278 -0.028829485 -0.17387359 -0.008288939 0.11223899 0.1813572 0.03211916 -0.06918022
0.046714917 0.06340169 0.21538089 0.008320576 -0.052952453 -0.08578804 -0.08362844 0.008030637
-0.07851812 -0.07568787 0.1738047 -0.043181237 -0.0048956666 -0.06634311 -0.0701245 0.027915712
-0.04082731 -0.033669617 -0.03869392 -0.070845015 0.028311826 0.009061318 0.118600816 -0.06519729
-0.10355027 0.0031587104 0.03615701 0.06719909 -0.017263863 -0.071685396 -0.13022652 -0.09253573
-0.10353303 -0.032940753 -0.012294098 0.09646374 0.061183177 -0.09326946 -0.0049825883 -0.08665643
0.055349354 0.04119964 -0.029997388 -0.06495639 -0.052867293 -0.0007684158 -0.01238858 0.03428027
-0.13731171 -0.07360907 -0.049621895 -0.017625997 0.100752994 -0.060177255 -0.13731064 -0.06907516
-0.1683705 -0.13012694 -0.053771626 -0.027993066 -0.036605094 0.13789523 0.1478694 -0.017769063
0.010301156 0.017838335 -0.13293342 -0.08157444 0.029346382 -0.009354044 0.003309746 -0.019337187
0.035938125 -0.005776366 -0.03719139 0.034627106 0.049192004 0.016924003 0.026416808 -0.0345663
-0.015467328 0.01808375 0.0112616755 -0.062005408 0.05737902 0.060230754 0.0072555374 0.114838846
0.105692014 0.09604383 -0.011229353 -0.10894882 -0.04126693 -0.05936561 0.07786486 0.009514642
-0.061954904 -0.053636685 0.040319405 0.006309536 0.043675464 0.048420362 0.10859406 0.13559851
-0.02436671 0.0061947107 0.058255736 0.090941645 0.114641644 0.041423436 -0.06228209 -0.035212018
0.027408348 0.11954335 0.07587314 -0.049919844 -0.13252969 -0.07905294 -0.07165239 -0.09636052
-0.01083863 -0.040789187 0.014837183 -0.06727884 -0.0756858 -0.064538434 0.06428753 0.09503568
0.031517815 -0.07710537 -0.04145827 0.040865578 -0.008816831 0.026708942 0.043557156 -0.010137447
-0.053907644 -0.033627298 -0.0891138 0.09126833 -0.008019411 0.088652164 0.062928885 -0.019064542
0.070739396 0.07422633 -0.037300903 -0.013680491 -0.08332064 -0.01621257 0.035357885 -0.058203794
0.031506587 0.01424173 0.0018850939 0.022677328 -0.08517388 -0.05315303 0.07261943 -0.02934368
-0.042672053 0.0048160404 -0.030998906 0.027619613 0.031161293 0.024721973 0.17013578 0.110923
-0.0024526785 0.09902962 0.018477865 0.066534296 0.059712794 0.06495945 0.027447188 0.09986252
-0.004398585 0.07932608 0.08779605 0.022567332 0.01580158 0.049791437 0.061226524 0.012535489
-0.00971244 -0.1233285 -0.06349388 -0.017052043 -0.021672472 -0.014685406 0.0010603606 0.03947827
0.06703283 0.014177132 0.009521569 -0.011663376 -0.007318677 0.03808266 0.020524869 0.018754572
-0.03554607 0.056716733 -0.0010132673 0.057953436 -0.11974099 -0.014673381 -0.016363546 -0.021879273
0.051336873 0.036234703 0.0036734203 -0.023184305 0.06036399 0.06164672 0.15370299 0.029421877
0.04554392 0.12390621 0.047601327 0.10698946 -0.018774593 -0.04860895 0.033065245 0.11302026
0.14781159 -0.029635087 0.11100196 0.048651207 0.12576206 0.06425669 0.08296739 0.023647312
0.13961975 0.09111085 0.0089320075 -0.095830195 -0.002850122 -0.023098681 0.023031596 0.08107602

encoder.conv1.conv.bias f4 [16]
00000000: 1947 62be edeb 423e 4f7d 0dbc 42c2 373c
00000010: a76f 603e 6c10 45be 0266 8dbc 1395 293e
00000020: 1db3 0a3e 021e 023b d55a 683e 667b 683e
00000030: 3c78 94bd aba4 b83e 46e9 4c3e 8ae9 e33e
-0.22097434 0.19035311 -0.008635833 0.011215748 0.21917592 -0.19244546 -0.017260555 0.16560774
0.13544889 0.0019854312 0.226909 0.22703323 -0.072494954 0.36063132 0.20010862 0.44514114

encoder.conv2.conv.weight f4 [32, 16, 5, 5]
00000000: e8aa 773d 5299 143d 7fd2 583d 7296 a2bd
00000010: e062 d13d c1d4 22bd 694a e33d 0c55 813d
00000020: 33b7 63bb 54e3 c03d 40d4 863c cfa3 76bd
00000030: 260f 163c 88f8 ae3d 8661 103e 6be3 4a3c
00000040: e1d6 63bc 3ab3 563d 53f5 0b3d e759 aebb
00000050: 3819 093d f02a 45bd 57d1 cc3c 606f d4bc
00000060: 9185 a93d f130 dd3a 0790 eabc 606e 48bd
00000070: c452 da3c 1c02 c23c d761 08bd 11de 3fbd
00000080: 18d6 993d 8053 91bd 6015 85bc ac25 d63c
00000090: bfad 0ebd 037b 8abb a376 193d 359f 9d3d
000000a0: 614f 2cbc 6e58 55bb 87eb 4f3d 16c9 be3c
000000b0: 321b 373d c5bf 483d 6f9f e93c 865f 8e3a
000000c0: 92b0 9d3d 1ed1 933c a8b6 92bd 7146 943d
000000d0: 3560 dabb 1823 d43c 4f07 e6bd ab63 25bd
000000e0: 3303 fbbc b49f 593d 8f86 123d 1182 47bd
000000f0: 3755 c63c 9010 7fbd d43d 60bd c80e 113d
00000100: 57b4 ac3d e1b6 db3c c244 8b3d 5746 033d
00000110: e8eb 983d f901 ab3d eb44 cf3c 3d81 33bc
00000120: 4464 45bc 9204 4fbc ef6b cabc 6318 203d
00000130: 3b6e 9ebd 8810 6dbd 7ad2 d0bd 6eec dfbd
00000140: b758 63bd 6d84 8bbb fa10 113d fa60 6d3d
00000150: bab7 ebbc 1adf 3cbc 5d3d 153d 0b8c 3dbc
00000160: 6980 b7bc e41d 0a3e 1b71 05bc 9093 a1bc
00000170: 206a 123d 5420 7bbc 55e2 6e3d 3fe5 93bd
00000180: 62ad 33bd cacf 6d3c 062a 8fbd bccc 47bc
00000190: f5a4 56bc 7ec9 dabc 2b8d 46bd e0bd 80bc
000001a0: 1c52 713d f145 bc3c 86d7 da3d f9ce 203c
000001b0: face 883c 8504 c53c a307 923c 88ee 9a3d
000001c0: 26c5 223d 7831 c8bc 5621 013b 21c6 ef3c
000001d0: c352 7c3c e9a7 e6bc 85ea 8bbd 8a3d ac3d
000001e0: e8e6 523d 1367 3ebd 6cfd 2b3c b3be dbbc
000001f0: bda5 7dbd 30df e8bc 6d0d 79bc d599 e5bc
00000200: 737d 613d 2aca cebb 3c19 b53c 1192 653c
00000210: 53ff 1cbe b658 a33d de42 f13c ae19 413d
00000220: a5b4 9bbc ed64 4a3d 0871 6e3b 8840 f83c
00000230: 51dc 9fbd 4e20 343c 09f6 913d 56c5 d4bc
00000240: 07aa 2fbc 4d8d 863d 26ce 2fbd 8e48 88bd
00000250: 5aac 0bbd fd18 553b 93ca 11bd 5331 47bd
00000260: 6b8c e2bb 30d6 69bd fe59 5fbd 4717 0c3d
00000270: b9e7 27bc 5de6 b9ba be8e 42be e4de ccbc
00000280: 7245 be3b 4db6 70bc 3098 b93c 4f0d 7ebd
00000290: 7fd0 333b 1e2b 44bd 3ba3 41bd 66ed cabc
000002a0: 39d2 a43b 4536 47bd 51ae 76bc 9661 9a3d
000002b0: ae99 13bc d145 1fbd dfe7 713d e0dd 813c
000002c0: 61da 1ebd 1a09 31bc 5cc5 f43c 4699 4e3d
000002d0: e2f8 dcbc d869 12bd c727 a53b 8954 66bd
000002e0: b3e7 b33d 0a35 de3d a8ce c93c 7898 5dbc
000002f0: 1005 e3bb 592e f1ba ebae fe3c f262 44bd
00000300: 964f 1dbb 22ba f6bd ba83 f8bc 9694 423c
00000310: 4dbc 613c 3c54 babc ef22 ba3b 2bec 1ebd
00000320: e0ff 1a3c 540b 00bd ffdc 4ebd 73f6 683d
00000330: 5549 ca3c c3ce 70bc ae4a de3c 0785 bc3d
00000340: 939d 943c f85c e6bd bc7c 1fbc 80a3 4539
00000350: 1506 923c dad1 a2bd f26b 87bc 776a 913c
00000360: 1cb5 6ebc 2c5a c7bc 16f1 9fbd ca8d 90bd
00000370: e4de 3e3c c815 2bbd 3c39 65bb 2f21 623d
00000380: 03e0 7c39 2924 37bd a6d7 3a3d 2ce6 a43c
00000390: b842 94bd 3e86 c2bc 4396 c5bc 1545 febb
000003a0: bc39 903c 15df 8e3d 9c16 583d 409b 703a
000003b0: d882 1abd b5cc 383d 95dc ce39 e062 8fbc
000003c0: 7ae4 863d 0727 85bd e57a a43d 2e0b 3d3d
000003d0: 6c77 34ba 8470 2fbd ad31 bbbc 312f f6bc
000003e0: 1d30 e9bb 9396 633d 4ab5 15bd 2890 01bd
000003f0: 7925 8cbd 3ec0 acbc b0f4 4c3d 2cc1 1f3c
0.060465723 0.03627903 0.05293512 -0.079388514 0.10223937 -0.03975368 0.11098177 0.063150495
-0.0034746646 0.094183594 0.01645863 -0.060214814 0.009158885 0.08543497 0.14099702 0.012383322
-0.013906212 0.052417018 0.034169506 -0.005320776 0.033471316 -0.04813665 0.025002165 -0.025932014
0.08277429 0.0016875548 -0.02863313 -0.048933387 0.026650794 0.023682646 -0.033296432 -0.04684264
0.07511538 -0.070960045 -0.016245544 0.02614101 -0.034833666 -0.00422609 0.037466656 0.07696382
-0.010516972 -0.003255393 0.050761726 0.023289245 0.04470367 0.04901101 0.028518407 0.0010862208
0.07699694 0.01804405 -0.07163745 0.07239998 -0.006664301 0.02589564 -0.11231863 -0.040378254
-0.030641174 0.05313082 0.035772856 -0.048708025 0.024210555 -0.062271655 -0.054746464 0.035414487
0.084328346 0.026820602 0.06800224 0.032049503 0.074668705 0.08349986 0.025301417 -0.010956106
-0.012047831 -0.012635367 -0.02470967 0.039085757 -0.077358685 -0.057877094 -0.10196395 -0.10933767
-0.055504527 -0.0042577297 0.03541658 0.057953812 -0.028774131 -0.011527801 0.036435474 -0.011569033
-0.022400098 0.13487965 -0.008144642 -0.019723684 0.03574574 -0.015327532 0.058321316 -0.072214596
-0.043866523 0.014514873 -0.06990437 -0.012194809 -0.013100852 -0.026707407 -0.048474472 -0.01571554
0.058916196 0.02298257 0.10685639 0.009814971 0.016700257 0.024050007 0.017825907 0.075650275
0.039738797 -0.024437651 0.0019703708 0.02926928 0.015400591 -0.028156238 -0.068318404 0.08410175
0.05148974 -0.046485018 0.010497432 -0.02682433 -0.06192564 -0.028426737 -0.015200955 -0.028027454
0.05505128 -0.006310721 0.02210676 0.014011876 -0.15331773 0.07975905 0.02945083 0.04714363
-0.019007036 0.049412657 0.003638329 0.030304208 -0.07805694 0.01099403 0.071270056 -0.025973003
-0.01072169 0.0656992 -0.042921208 -0.06654464 -0.034099914 0.0032516115 -0.03559358 -0.048631024
-0.006913712 -0.05708903 -0.054529183 0.034201887 -0.010248118 -0.0014183033 -0.18999764 -0.025008626
0.0058066184 -0.014691901 0.022655576 -0.06202441 0.0027437506 -0.047892682 -0.04727481 -0.024771404
0.0050299433 -0.04863574 -0.015056209 0.07538144 -0.009008808 -0.03888494 0.05905902 0.015852869
-0.03878248 -0.010805393 0.029879265 0.05043914 -0.026974145 -0.03574547 0.005040142 -0.056232963
0.087844275 0.1084996 0.024634674 -0.013525121 -0.0069280937 -0.0018400653 0.031089267 -0.047945924
-0.0024003736 -0.12047221 -0.03033625 0.011876246 0.013777805 -0.022745244 0.005680434 -0.038799446
0.009460419 -0.031260803 -0.050503727 0.056875657 0.02469317 -0.014697733 0.02713522 0.092050605
0.018141543 -0.11248201 -0.009734329 0.00018848293 0.017825166 -0.07950182 -0.016530965 0.017750962
-0.014569547 -0.02433499 -0.07809655 -0.07058294 0.011649821 -0.04176882 -0.0034976741 0.055207428
0.00024116044 -0.04471222 0.045615815 0.020129286 -0.07239288 -0.023745652 -0.024119502 -0.0077597
0.017605655 0.06976143 0.052755937 0.00091784075 -0.03772244 0.0451171 0.00039455728 -0.017503202
0.06586547 -0.065015845 0.08031253 0.04615324 -0.00068842503 -0.042831913 -0.022850836 -0.0300518
-0.0071163313 0.05556352 -0.036549844 -0.03163162 -0.06843085 -0.021087762 0.05003804 0.009750646

encoder.conv2.conv.bias f4 [32]
00000000: db92 993d 43c7 34bc 2b33 1fbe ba20 14be
00000010: 6429 6c3c 15b4 ab3d a70c 16be 6ea5 d63d
00000020: ecce 503d cde3 02be 7b3d e6bd 8990 8b3d
00000030: 7c89 873c f9c3 33bd 15c8 c5bd b34a 293d
00000040: ea46 2f3d 2d9b 663c f263 6ebc 9afe 183d
00000050: 7b2a 1e3d eea5 053e ffe9 273e 24ce 9a3d
00000060: 6f66 083e d33a 85bc a012 0f3e 91ae 72bd
00000070: 0687 073e 9004 58bb a82f a73d 5311 ba3b
0.074987136 -0.011033836 -0.15546863 -0.14465609 0.014414165 0.08383957 -0.14653264 0.10480772
0.050978586 -0.12782212 -0.11242195 0.06814677 0.01654505 -0.043888066 -0.09657303 0.041331004
0.04279224 0.014075083 -0.014550196 0.037352182 0.03861473 0.13051578 0.16397856 0.075588495
0.13320325 -0.016263401 0.13971949 -0.05924851 0.13235101 -0.0032961704 0.081633866 0.0056783347

encoder.conv3.conv.weight f4 [32, 32, 5, 5]
00000000: eceb 83bc 3132 9bbd 1bbb 983c 4d29 113d
00000010: ad79 70bc e539 083b 023c 89bd 09fc 8dbc
00000020: a4f2 32b9 0fb5 f2ba 132a 65bd 9cee bd3c
00000030: 502b 183e 1075 913d 8be5 11bd 5781 6c3c
00000040: 9f49 6abd 99f8 25bd b8d7 1bbd d6e3 52bd
00000050: 601d 98bc 99f6 863d 8f82 cabc 12f1 95bc
00000060: 8b19 25bc e8dc 8b3d ec45 a03d 0e46 a6bb
00000070: bca9 dabd f86f 123d f5d4 88bd fe60 8b3c
00000080: 956e 82bd 83f6 c13d 64df 9dbc f6d4 903d
00000090: e004 163d ebda 08bb 68d1 35b9 fa86 be3c
000000a0: a752 60bd 271f ff39 01cc dbbd 8cd6 5fbc
000000b0: 7367 6b3d 4feb edbc fa38 9abc cf23 563d
000000c0: ec75 92bc 1b60 6f3d dc8c 153d d53d 073d
000000d0: 8d1c aa3b c0a0 633d 22b9 e63c f210 0fbd
000000e0: 7c61 073c fe45 783c 773b 6f3b 38cd 28bd
000000f0: 8217 3cbd ae9f b7bd 1f6a 8cbd 75f2 883d
00000100: f150 f9bb 7add a13d 517c 083b b5da aa39
00000110: 5f4e ec3d b866 c53c 543f 353c 905d 243d
00000120: 1a46 77bb 1008 c83d 8361 8a3d 7d43 463d
00000130: d5ff c23c d72f 01bc b8d7 c2bc 5499 033d
00000140: 908f b7bb a090 e93c 74fe 14bd a7ba c83c
00000150: 9e78 86bc 0438 2e3c 785e c23d c0d0 18be
00000160: ceb5 9e3c a9f4 65bd 3417 4b3d cced 0dbd
00000170: 6e54 a9bc 0c7a 073e da3f a33d ce08 eb3d
00000180: 9daa 47bd 263d f33c bf70 bc3d da93 683c
00000190: bd08 153c 10c2 61bb 8e2e 2b3d fa49 af3c
000001a0: 70f9 f03c f39a 193d 7e44 73bd 8118 4c3d
000001b0: b081 8abc a41a 81bb c010 163d 66a0 9abc
000001c0: 07fd e3bd 675f 40bd c569 983d 656d b9ba
000001d0: f490 58bd b814 c13d 4498 6b3c c44d 5d3b
000001e0: 9d38 673d 9427 843c 0c3a 45bc 74a1 bbbd
000001f0: d89b 37bc 6b5f ad3c 42d8 45bc a791 313c
00000200: 7c53 5f3b 8aa3 dbbd 73df 1e3d d371 dabc
00000210: a32c 61bd 9577 07bd 773c 543d 9940 d63d
00000220: 4dac 9dbd f4b0 e93c f02d 213d 5ab9 dc3c
00000230: d322 f2bc 8f18 cb3d bbc2 3ebd 8956 c73d
00000240: 628c 313d bc3e 8c3c 3a7f 943c 22b2 9abc
00000250: 3735 973c 8d4c bd3b 63c9 4f3c bfae 0fbd
00000260: d586 87bc e3cc 013d 96c1 82bd 3101 ab3d
00000270: 1cb8 8cbd 6e78 e7bd fcff afbd 9fa5 9d3c
00000280: 4e28 7fba e8aa 0fbd 33f7 3cbe dd31 d0bb
00000290: 6925 bbbc 49f6 223c 8b25 96bc b8d8 43bd
000002a0: d2d9 c53d 7987 8c3d d901 70bd 82c6 9bbd
000002b0: 9724 36bd ec57 363c 8635 413d 79e8 0a3c
000002c0: 0cab 703d 86b5 423b 0a1d 753c fc96 8e3d
000002d0: 19bb 2dbd c229 783d 6a7b 3dbd a1ed 043d
000002e0: 9976 a8bc d389 bdbd 651e 96bd f378 86bd
000002f0: 5ba0 f63d d345 78bc 31f4 8abd fd33 cbbc
00000300: 42e4 91bd 1ef5 d2bc e34a a33c bf5e bdbc
00000310: 15b5 db3c ecfd b43d 4a7b 28bc 2d39 a23c
00000320: 16e5 653b 5ca4 18bd 26af 45bd 988e a43c
00000330: 6f95 a3bd ff22 8dbb 1751 5b3d 0350 39bb
00000340: b8ca a2bc 6e9c 03bc 77eb 18bc bd37 d3bd
00000350: 75e5 6dbd 6dc2 0bbe 56eb b3bd 0171 9abd
00000360: e429 87ba a67d 4a3d d9b8 523d 83a0 0d3b
00000370: b56b ecbd e90d dfbc 6d33 b3bd 38f7 883d
00000380: 8bad 003a 447b 12bc 5150 57bc 5678 b63d
00000390: 9add e73c f329 3abc b255 29bc d6a9 91bd
000003a0: 0c85 b13d 7383 873c da86 c63c b4fe b43d
000003b0: b41e 3d3d ad55 c93c 0365 873d 22a6 bebc
000003c0: fd9e 633d 655c a4bc db3f 01bd d677 5b3d
000003d0: 8de5 d8bc 4fae 943d 8da1 5f3d e509 c3bb
000003e0: e63c c83b ba4d dc3d 17d4 ea3c 46b8 18bd
000003f0: 6113 cd3d 2c2d 933d a007 0dbc a6dd a83b
-0.016103707 -0.075779326 0.018643906 0.035439778 -0.014677447 0.002078646 -0.06700899 -0.017332094
-0.00017065794 -0.0018517094 -0.05594833 0.023185067 0.14860272 0.07102406 -0.0356193 0.014435134
-0.057199117 -0.040520284 -0.038047522 -0.051486813 -0.018568695 0.065900035 -0.024720458 -0.018303428
-0.010076891 0.06829244 0.078258365 -0.005074269 -0.106769055 0.035751313 -0.06681243 0.017014023
-0.06368748 0.094708465 -0.01927156 0.07071869 0.036625743 -0.0020882438 -0.00017339515 0.023257721
-0.054766323 0.000486606 -0.1073227 -0.013661992 0.057471704 -0.029042868 -0.018825997 0.052280243
-0.017878495 0.058441263 0.036511287 0.033017952 0.005191392 0.055573225 0.02816445 -0.03492827
0.008262988 0.015153406 0.003650395 -0.041211337 -0.045920856 -0.08966003 -0.068561785 0.0668687
-0.007608526 0.079035714 0.0020826051 0.00032587876 0.115383856 0.024096832 0.011062462 0.04012829
-0.0037730993 0.09767163 0.0675688 0.048404206 0.02380363 -0.007884941 -0.023784503 0.032128647
-0.005601831 0.028511345 -0.036375478 0.024503065 -0.016414937 0.010633472 0.09490675 -0.14923382
0.0193738 -0.05614153 0.049582675 -0.03465061 -0.020670142 0.13230151 0.07971163 0.11476289
-0.048746694 0.029692244 0.09201192 0.014195407 0.009096322 -0.0034447946 0.041792445 0.02139758
0.029415816 0.037501287 -0.05939149 0.049828056 -0.016907543 -0.0039399434 0.036637068 -0.018875312
-0.111322455 -0.046965983 0.07442049 -0.0014146982 -0.052872613 0.0942778 0.014379565 0.0033768276
0.056450475 0.016132154 -0.012037765 -0.09161654 -0.01120659 0.021163663 -0.012075486 0.010837949
0.003407686 -0.10724552 0.038787317 -0.026665604 -0.05497421 -0.033073027 0.051815476 0.1046154
-0.076988794 0.02852676 0.03935045 0.026943851 -0.029557621 0.099167936 -0.04657243 0.09733302
0.04334677 0.017119758 0.018127073 -0.018883768 0.018457992 0.005776948 0.012682292 -0.03507876
-0.016543785 0.031689536 -0.0638458 0.083498366 -0.068710536 -0.11302267 -0.08593747 0.019244013
-0.0009733484 -0.0350751 -0.18453674 -0.0063536004 -0.022844987 0.009946414 -0.018328449 -0.0478141
0.096606866 0.06861777 -0.058595512 -0.07606222 -0.04446849 0.011129361 0.047170185 0.008478277
0.058756873 0.0029710247 0.014960537 0.06962392 -0.04241476 0.0605867 -0.046260275 0.032453183
-0.020564364 -0.092548035 -0.07330016 -0.06566038 0.12042304 -0.015153366 -0.06784857 -0.024805063
-0.07123615 -0.025751647 0.01993317 -0.023116468 0.026819745 0.08837494 -0.010283301 0.019802654
0.0035079173 -0.03726612 -0.048262738 0.020087525 -0.079874866 -0.0043071504 0.05354413 -0.002827645
-0.019872054 -0.008032901 -0.009333483 -0.103133656 -0.058080155 -0.13648386 -0.08785121 -0.07541085
-0.0010312167 0.049436234 0.051445816 0.0021610565 -0.11543981 -0.027228313 -0.08750043 0.06687778
0.00049086724 -0.008940522 -0.0131417075 0.08909671 0.02830391 -0.011362541 -0.010335373 -0.07112472
0.08667955 0.016542172 0.024234224 0.08837643 0.04617186 0.024576986 0.06611063 -0.023272578
0.055571545 -0.020063588 -0.031555038 0.05358108 -0.026476646 0.07259809 0.054597426 -0.0059521073
0.0061107753 0.10757013 0.028665585 -0.03728511 0.10013462 0.0718635 -0.008607775 0.0051533757

encoder.conv3.conv.bias f4 [32]
00000000: dbdc 203e cb63 8d3d 002b 903c 8e5f eebd
00000010: 7d97 7939 0cca cf3d 3878 54bd 41cb db3d
00000020: 9ae7 323c dd5c 14be 906c 14be 582a 063e
00000030: 07f0 0b3e b052 003e 9418 583c a06b b3bd
00000040: b9b0 c3bd 6c8b ad3b 2215 343b f37d c23c
00000050: 2d1f b4bb d21c 1b3c 5095 eb3d 6bcb 413d
00000060: e450 023e fa99 d83c b621 f7bc 1728 ba3d
00000070: 6467 893d b5c9 68bc 65fc 0e3e 9663 17be
0.1570925 0.069037996 0.017598629 -0.11639319 0.00023802924 0.10145959 -0.051872462 0.10732127
0.010919476 -0.1448855 -0.14494538 0.1310209 0.13665782 0.12531543 0.013189454 -0.08760762
-0.095551915 0.0052961614 0.0027478416 0.023741698 -0.0054968805 0.0094673205 0.115030885 0.047313135
0.1272617 0.02644061 -0.030167442 0.09089678 0.06709173 -0.014208247 0.13963468 -0.14784083

encoder.conv4.conv.weight f4 [32, 32, 5, 5]
00000000: 494b 07bc d38b 97bd 229f 0fbc 2743 e1bc
00000010: 57e7 d1bc 53c4 a0bc f8a8 3b3d f545 b03d
00000020: ef32 f6bd b5b6 02bd a88c 303c bc39 cd3d
00000030: 5fc4 8c3e b328 7b3d a23e a7bd 67e7 6a3c
00000040: d6b5 95bb 7204 883d 1492 373b b3f6 f83c
00000050: b3a2 32bc 28b7 9ebc 234c d4bc 5082 f13b
00000060: 3be2 69bd 9295 ff3b f62f e5bd 3995 8e3c
00000070: 50e1 e2bc b46f 353d c4dd 80bd 98f2 733d
00000080: 29a7 91bd 9555 a7bb d1da 4f3d 4cd9 70bd
00000090: 809e 753d b4cf 2c3e 39bb 29bc ba81 ef3b
000000a0: f210 aebc 6cf9 183d 48bc 73bd 8897 dfbc
000000b0: 7dc2 4cbd ffa9 17bc 7bbe 0b3c 3ce4 32bd
000000c0: 9ebb c63c 4e7e 0abd 1f65 c03c eb11 fcba
000000d0: 84a2 2839 035d c43c 00a1 8bbc 13da 2d3c
000000e0: 7b46 2ebd 06e0 28bd 533d f2bc 1361 cf3c
000000f0: cecc 983c 1151 8f3c b7c6 b6bd bf5f 12bb
00000100: cf0a bdbc 5b01 1c3d 3ad0 f23c c03f 1ebd
00000110: 5538 6fbd 4144 ee3c 23f3 e7bc cb28 03bc
00000120: d0a1 74bd 93e0 97bc 7606 48bd 32ad 553c
00000130: 908f dfbc 1cf3 223c 9284 7bbc be84 0e3d
00000140: 52a5 653c 0817 743d 6ef5 9ebd f563 0c3d
00000150: f6a0 c73b 3870 61bc fcbe 95bc 0192 1fbe
00000160: 6ee6 b13d 623a 6e3d e69c 943a 388f 17be
00000170: 0500 0ebd b2c2 0cbe c45e ecbd dfaf e1bc
00000180: 9405 8e3d aaf3 5f3d b490 933d c452 a6bd
00000190: 290c 14bd 2906 d53b 40c7 ee3b 13c5 7d3d
000001a0: 5a0c 2f3d bd9b 083d 59d6 92bd a9f5 45bc
000001b0: 0294 a53c a25d a03d 2d60 c33c ab5c a8bc
000001c0: 2f49 c4bd 7ec2 9e3d 9f13 943c 6072 ea3c
000001d0: 0196 55bd 2392 183e a204 0c3e 8a48 83bc
000001e0: 09c8 65bd 7d5f 74bc d120 943c daa5 89bc
000001f0: 789c 9dbc 4fe4 b03b b486 723c bb68 7a3a
00000200: 62c3 913c f34b 80bc f11d 11bc 09b0 d13d
00000210: d181 ebbc 087e 6dbd 2f2d 18bd 0624 58bb
00000220: 0c50 d2bd 1fa4 e4bd ea59 313b a361 5ebd
00000230: 5032 043b 268d 113c 5098 6fbd 8ab3 03bc
00000240: 5162 c73d 84a3 52bc 6ba8 403c 4ec9 833c
00000250: 5e23 aa3b 84b0 e8bc 3cfb b33b 94e2 f2ba
00000260: 62f4 b3bd b2c8 9c3c c097 5a3c 0ff9 78bc
00000270: 9959 b63d 459f e5bc 7edb 03be 4fa2 1d3d
00000280: 7751 1bbd 5291 3cbc d59b 91bc b7b9 723d
00000290: 5807 033c 8393 923c 3cfc 94bd 6f0e b5bc
000002a0: 2c1a d23d dbe1 523d 7e24 493d 3fe3 3ebd
000002b0: ccec 833d e03a 253c 5937 85bd 8cd2 6fbc
000002c0: 04c3 7c3d 93c7 70bd 0c2a f43c e162 22bc
000002d0: 7130 813c 24f9 8c3d 6557 bfbd d05c 8d3d
000002e0: 3f0b be3b 4ef3 993d 5a5d c4bd bb7b 533e
000002f0: e8bc 4abd 894b 8dbd 24ba d23c d58b 413b
00000300: 8309 60bd 6fb8 1dbd 3bf4 363d 26a6 15bd
00000310: b334 df3b 1478 cdbd e73c 7c3d eec4 36bd
00000320: 0d17 423d d22b 47bd 1a5b 70bc e7c0 c2bc
00000330: 6a1d 5d3b 8615 6fbd cfb6 8bbd 0669 a53c
00000340: 1bb3 c03c 0e0d a03c 6f5e f7bc b4cb 843d
00000350: e73c 37be 0e41 0ebe 6cb4 13bd 9f56 de3d
00000360: 11e7 a0bd f706 3bbe 85fe 723d 71c7 8fbd
00000370: 81e8 49bd 41da b0bc 813c a63d 6369 46bd
00000380: 78fa d8bb d292 873d c8b9 16bd 0672 2d3c
00000390: 6a5b 52bd 56a0 523c d4e9 1fbd 006b 763d
000003a0: c31b d8bc c2b8 92bc 9743 a23d cfdb 05bd
000003b0: 5021 22bc 77e7 563d 91ed 893d d4a8 8dbd
000003c0: 758b dc3b 653b 20bd d66b a33d 061f 7dbd
000003d0: 44df 0a3c a320 f9bc 2011 1bbc aafe fcbd
000003e0: e2c0 573d 164c 673c 18b8 303c 928c 8fbc
000003f0: dc4a f6bb 74af 4fbd 934d 103d 41cc 7cbd
-0.0082576955 -0.07399716 -0.008765968 -0.027497841 -0.025623007 -0.019624865 0.045815438 0.08607093
-0.120214336 -0.031912524 0.010775723 0.100207776 0.2749357 0.06131811 -0.08166243 0.014337397
-0.0045687957 0.06641473 0.0028010653 0.030391073 -0.010903048 -0.019374445 -0.025915211 0.007370271
-0.057100516 0.0077998126 -0.111907884 0.01740514 -0.027695328 0.04429598 -0.062922984 0.059557527
-0.071119614 -0.0051066377 0.05074579 -0.05880098 0.05996561 0.16876107 -0.010359579 0.007309166
-0.021248315 0.037347242 -0.05950573 -0.027293935 -0.049990166 -0.009256839 0.008529301 -0.043674693
0.024259385 -0.03381186 0.023485718 -0.0019231414 0.0001608227 0.023970133 -0.017044544 0.010611075
-0.042547684 -0.04122927 -0.029570257 0.025314843 0.018652346 0.01749471 -0.089246206 -0.00223349
-0.023076443 0.03808723 0.029640306 -0.038635015 -0.05840333 0.02908528 -0.028314179 -0.008005331
-0.05972463 -0.018539703 -0.048834287 0.013041781 -0.027290136 0.009945657 -0.015351431 0.03479456
0.014016466 0.059592277 -0.07761656 0.034275014 0.006092186 -0.013759665 -0.018279545 -0.1558304
0.08686529 0.058161147 0.0011338263 -0.14800727 -0.034667987 -0.13746145 -0.115415126 -0.027549682
0.06934658 0.054675736 0.07205334 -0.08121255 -0.03614441 0.0065009785 0.007286936 0.061955523
0.04273639 0.03335165 -0.0716979 -0.012082496 0.020212177 0.07830359 0.023849571 -0.020552
-0.09584271 0.0775194 0.018075762 0.028618991 -0.052145008 0.14899497 0.13673642 -0.0160258
-0.05609897 -0.014915344 0.018082054 -0.016802717 -0.01923965 0.0053983103 0.014802624 0.0009552349
0.017793361 -0.015661215 -0.008857236 0.10238654 -0.028748425 -0.05798152 -0.037152465 -0.0032980456
-0.10269174 -0.11164116 0.002706165 -0.054292332 0.002017159 0.00888375 -0.058494866 -0.008038411
0.09735549 -0.012856368 0.011758904 0.0160872 0.0051922044 -0.028404482 0.005492596 -0.001853066
-0.08786847 0.019138668 0.013341844 -0.015196099 0.08903808 -0.028030047 -0.12876698 0.038484868
-0.037919488 -0.011509256 -0.017774502 0.059259143 0.007997356 0.017892605 -0.072746724 -0.022101609
0.10258898 0.051484924 0.049107067 -0.046603438 0.0644165 0.010084838 -0.06504697 -0.014637601
0.06170942 -0.05878408 0.029805206 -0.00991127 0.015770169 0.06883457 -0.09342841 0.06902468
0.0057996805 0.0751711 -0.09588118 0.20652668 -0.04949656 -0.06899173 0.025723524 0.002953281
-0.05469657 -0.038505968 0.04466651 -0.036535405 0.006811702 -0.10032669 0.06158152 -0.0446214
0.047385264 -0.048625775 -0.014670158 -0.023773624 0.0033739456 -0.058370136 -0.06821977 0.02019168
0.023522904 0.019537475 -0.030196397 0.06484166 -0.17894326 -0.13892004 -0.036060736 0.108563654
-0.078565724 -0.18264376 0.05932476 -0.07020462 -0.049294 -0.021588447 0.08117009 -0.04844035
-0.006621655 0.066198006 -0.03679827 0.010586267 -0.05135671 0.01285561 -0.039041355 0.060160637
-0.026380425 -0.017910365 0.07923048 -0.03268033 -0.009895638 0.052466836 0.06734765 -0.06916967
0.0067304918 -0.039119143 0.079795524 -0.061797164 0.008476082 -0.03041107 -0.009464532 -0.12353261
0.05267418 0.014117261 0.010786079 -0.017523084 -0.007516248 -0.050704435 0.03523023 -0.06171823

encoder.conv4.conv.bias f4 [32]
00000000: 6f37 8c3d acdd 403d 87ee 0c3e dab7 b8bd
00000010: e1fc a0bd e0a9 033e c0c4 8c3d 38be e73d
00000020: 0d1e d7bd 25f1 80bd 0979 febc 6729 dd3d
00000030: e8b2 d23d 9ccf e73c 5fc8 153e 8856 2e3e
00000040: 708b 2abd 91a4 923d c912 573c b2b9 8d3d
00000050: 4876 053e cb53 963d 799c b13d 637d 8e3c
00000060: 8bb3 cebd 9c9f edbd 8a8b bf3d 5a6f c23d
00000070: b5fd 68bc 44fe bf3d e1a5 3d3e 1db2 15bc
0.068465106 0.047086403 0.13762866 -0.09019442 -0.07860733 0.12857771 0.068734646 0.11315578
-0.105037786 -0.06295995 -0.031063573 0.107989125 0.1028803 0.028297238 0.14627217 0.17025197
-0.041636884 0.07160295 0.013127037 0.06920184 0.13033402 0.07340201 0.08672423 0.017393773
-0.10092839 -0.11602709 0.09352787 0.09493895 -0.014220645 0.09374669 0.18520309 -0.009136704

encoder.conv5.conv.weight f4 [19, 32, 5, 5]
00000000: bb58 4f3d e27f 4cbd 34f7 033e 6af0 773b
00000010: 4780 b6bc f77e c739 3e5a 9bbc 005e c5bd
00000020: 84a1 99bd 95ee 7d3d 1a34 143e 0013 c73c
00000030: 8b59 15bd 2c21 0d3d 7185 303d fba2 18bd
00000040: 5a4f 6cbd 3260 d23a 7650 c83b bc6e 92bd
00000050: d53a 973c 2e0c 93bd 36d8 c5bc 07ba 783d
00000060: eb7e bbba 1676 fabc 3275 543d dfe4 083e
00000070: 7ab5 ce3c be1a 2abd e161 c43b 01dd 0ebe
00000080: d493 e13a 4bd0 00bd e92c 00bd bbe1 a13c
00000090: 3247 1d3d 201d c2bd 93fe 8bbd f8e8 3f3c
000000a0: fe37 6dbc 5e0a a0bd 4555 da3d 1962 a13d
000000b0: 876b 66bd 2639 063c 3451 b23c 4f78 243d
000000c0: 93d6 a43d d190 693d 07e6 57bc d15c 7bbc
000000d0: db39 143b 5903 0ebc ecf6 b3bd a7e3 863c
000000e0: c51f b6bd 75ba edbc e9ae 1f3b 1a04 013e
000000f0: 5500 903d 3062 dd3c 4c58 f93c 8dc8 8c3d
00000100: e9e2 e4bb 10c0 94bc 1146 6b3d 234d a93c
00000110: ee8c a13d e8bd 1d3b 7dd0 8b3a 67f5 07bd
00000120: c858 663c 20e5 6cbc 9fc9 353c b10c 78bd
00000130: cc9b 89bc 4fed 29bd 8878 063d 0a2c 55bc
00000140: 311a 683c 389d 663d 7db5 ab3d 2581 c6bd
00000150: 1051 2abd a22c 7d3d 83a1 203d ff64 17bd
00000160: 19ba 673e da69 583d 9673 0e3b 0197 2cbd
00000170: 6025 04bd d6e3 8fbb c5db 67bd af8c fe3c
00000180: c0a4 46bd 436d 0bbc f5a8 503d df74 25bc
00000190: 13f9 a83c 63ad 00bc 7b0f d4bc a514 9a3d
000001a0: 6e62 a2ba 1c7c 313d 527a 2e3d 54e7 62bd
000001b0: dc6e a2bd 3979 f23c 3019 d1bd dbdc ddba
000001c0: 55e8 e03d c238 2bbe aa8a f1bd 5c8f 8fbc
000001d0: 1ad6 82bd 2748 203c 5bc3 0bbc e19f 67bd
000001e0: 2a04 193c c4f6 183d 06ce 10bd 4125 293d
000001f0: 32d9 233d aa26 d5bd 7578 4e3c 8c53 873d
00000200: 4d76 21bd 8975 43bd b6eb 92bc fc13 86bd
00000210: 5f20 c23d 7f1e 4abd 11b2 2ebd fdbb 263c
00000220: 028b ff3d 06de c9bd a903 c23d 2f04 83bd
00000230: 265a 3d3d 6da5 843d 72e9 a43c 81f2 153b
00000240: 19cc 203d b9bb 2ebb fb9d 343c b500 72bd
00000250: 9a83 bebd 9cb1 a63c 736f ed3d 2ca7 1d3d
00000260: 22df b7bd da8f 0dbd 63e3 4dbb af23 633d
00000270: efb8 06be a662 e3bc 7ce6 98bd 3ea6 82bd
00000280: 92bb d23c 863a 953d 3b49 313d d1a9 3e3d
00000290: 4e21 223d 7148 4c3d c337 8dbd 1854 b5bb
000002a0: f4d4 1c3e a43d 8f3b 267b 7ebc b41f 6a3c
000002b0: 650c ea3c a29e 6fbd 6e14 1bbd 49c7 10bd
000002c0: 20ac 5e3c 467a 813b e5d8 2abc c519 2f3b
000002d0: 1cde 1b3d 634a cdbd 2d1b d33c c955 25bd
000002e0: e158 1ebd f237 a0bc 1d1f 813d 9040 c13d
000002f0: 7379 0fbd d5b7 c0bd 1dd8 9a3b 0af7 e03d
00000300: 3d56 02bc bff7 0b3e 64a9 bf3b 1657 413c
00000310: f916 c73c 61b5 683c afda e33c 5cd5 463d
00000320: efd4 64ba 8e81 b8bc c393 78bd 298a 953b
00000330: 41da d6bc b8a6 cdbc d2f0 d0bc 278e 8c3c
00000340: f011 38bd 0598 a7bc ff88 1f3d 6df4 c7bd
00000350: abe2 27be 7195 ca3d acf7 cb3d 27a0 42bd
00000360: 8747 df3a f6b9 923d 700c 8a3c d008 bc3c
00000370: 36fd 36bc 2195 95bd 76d5 e53b 3c18 d6bd
00000380: 3772 b0bc 5eb1 b43d c8cf 80bd e682 34be
00000390: 0883 8b3d 3c1a 8bbb d2f1 f83c 3079 c83d
000003a0: 4083 46bd a433 0b3c a2c9 913c dcef 91bd
000003b0: 0d4b 8abd ccbb 793d 7c03 e43d 8b22 3cbd
000003c0: ed6c 6c3b fe0e 2b3c 936b 183e 80d9 e33d
000003d0: 7031 8fbd c573 1eba a8ce 4f3d 0474 a7bc
000003e0: a4b6 f2bc 36bb 243d e6f8 1eba dcd9 b7bc
000003f0: 7ebb d13d 9dab 27bd 3e2c c23d 6822 013c
0.05062173 -0.049926646 0.1288727 0.0037832507 -0.022277964 0.00038050834 -0.01896393 -0.0963707
-0.0750151 0.061995108 0.14473 0.024301052 -0.036462348 0.034455463 0.04309601 -0.037264805
-0.057692863 0.0016050397 0.0061131073 -0.07150027 0.01846067 -0.071800575 -0.024150949 0.060724284
-0.0014304792 -0.030573886 0.05186958 0.13368557 0.02523302 -0.04152941 0.0059931134 -0.13951494
0.0017210194 -0.031448644 -0.03129283 0.019760957 0.038397975 -0.094782114 -0.068356656 0.011713259
-0.014478682 -0.078144774 0.10660795 0.07880039 -0.05625489 0.008192336 0.021767236 0.040153798
0.08048739 0.057022873 -0.013177401 -0.015341953 0.0022617492 -0.00866779 -0.08787331 0.016465975
-0.08892778 -0.029019574 0.002436573 0.12599221 0.07031313 0.027024359 0.030437611 0.068741895
-0.0069850576 -0.018157989 0.057439867 0.020666664 0.07888208 0.0024069492 0.0010666993 -0.03319302
0.014059253 -0.0144589245 0.0110954335 -0.06055898 -0.016797923 -0.04148608 0.03282979 -0.013010988
0.014166401 0.05630228 0.083842255 -0.09692601 -0.041581213 0.061810143 0.03921653 -0.03696155
0.22629584 0.052835323 0.0021736375 -0.042136196 -0.032262206 -0.004391174 -0.056606073 0.031072943
-0.04849696 -0.008509937 0.05094238 -0.010098665 0.02062658 -0.007853839 -0.025886288 0.07523469
-0.0012388953 0.04333125 0.042597122 -0.055396393 -0.07931301 0.02959882 -0.10209882 -0.0016926782
0.10981814 -0.1672087 -0.11794026 -0.017524414 -0.06388493 0.009782827 -0.008530463 -0.056548957
0.009339372 0.03734471 -0.03535273 0.041295294 0.040002055 -0.10407765 0.012601961 0.06607732
-0.03941946 -0.047719512 -0.017934661 -0.065467805 0.094788305 -0.04934549 -0.042650286 0.010176656
0.124776855 -0.09856801 0.09473354 -0.06397282 0.04622855 0.06476865 0.020130847 0.002288014
0.039257143 -0.0026662184 0.011023994 -0.059082706 -0.09302445 0.020348363 0.11593523 0.038489506
-0.08978106 -0.034561016 -0.003141605 0.055453952 -0.13156484 -0.027757 -0.074658364 -0.063793644
0.025724206 0.07286553 0.04328273 0.04654867 0.039582543 0.049873773 -0.06895401 -0.0055337064
0.1531561 0.004371362 -0.015532291 0.014289785 0.028570363 -0.058500893 -0.03786128 -0.035346303
0.0135908425 0.0039513437 -0.010427688 0.002671824 0.038053617 -0.10023954 0.025769794 -0.040365014
-0.03865898 -0.019557927 0.063047625 0.094361424 -0.035027932 -0.09410063 0.0047254697 0.10984619
-0.007955131 0.13668726 0.0058490504 0.011800548 0.024302946 0.0142034 0.027814237 0.04854332
-0.00087292393 -0.022522714 -0.06068779 0.004563589 -0.026227118 -0.025103912 -0.025505457 0.017157627
-0.04493898 -0.02045823 0.03894901 -0.097634174 -0.1639506 0.09891785 0.09959349 -0.047516014
0.0017034867 0.071643755 0.016851634 0.02295342 -0.011168769 -0.07303835 0.007013972 -0.10453841
-0.021538837 0.088228926 -0.06289631 -0.17628059 0.068121016 -0.0042450707 0.030388746 0.0978874
-0.048465014 0.008496199 0.017796341 -0.07125828 -0.06752596 0.060970113 0.11133477 -0.04593138
0.0036075667 0.010440586 0.14884786 0.11125469 -0.06991851 -0.00060444727 0.050734192 -0.020441063
-0.029628105 0.0402176 -0.00060643104 -0.02244275 0.102408394 -0.040935148 0.09481095 0.007881738

encoder.conv5.conv.bias f4 [19]
00000000: 314e 623d ac8c a43d 0827 933d 2290 933d
00000010: bfd2 06bc 5184 313e 2836 03be 4415 8a3d
00000020: 37d7 0fbe 63b9 aebd b794 1e3d 28f4 ffbd
00000030: 33af 02be 1d58 06bc e575 033e 1645 cf3d
00000040: e469 60bd 5ad4 443c 64d8 243e
0.05525035 0.080346435 0.07185179 0.072052255 -0.008228957 0.17335631 -0.12813628 0.06742337
-0.14046942 -0.085314535 0.038716044 -0.12497741 -0.12762146 -0.008199719 0.12837942 0.10120599
-0.054788485 0.012013519 0.16098171

decoder.tconv1.transconv.weight f4 [19, 32, 5, 5]
00000000: 02bd c6b9 ca34 673d e6ff 5b3d 316e 743c
00000010: 7f48 46bd 9916 1d3a 4d7f 033e 318e 6e3e
00000020: 7008 dd3c 811e 19bd 45c8 d03c da83 133e
00000030: 517d fa3d a557 033d b738 2a3d 8d34 f63b
00000040: 5df6 1d3d f9ad db3c 052d f9bc 95a6 9939
00000050: 1259 333d ca94 683b 6289 bc3d c163 ffba
00000060: 7f5e 9f3c e638 4f3b 7c73 2f3c 0c12 a83d
00000070: 28f9 d13c c1b6 ddba 51b5 83bc 0757 acbd
00000080: 06ed 82bd b697 a1bd c602 a6bb 3b39 c3bd
00000090: 8258 54bd e3b7 e7bd b04c 933c f527 ee3c
000000a0: 5ae4 32bc 1ca7 e4bd db5d b8bd e05f 243c
000000b0: eb7c 7a3c 5a3e 5dbc 0bbf babc 6c7c 943c
000000c0: 76d0 9f3a 902a aabb 4e70 3f3d dc3f a1bc
000000d0: 9028 a1bc 2aef b33c a5b4 ef3c 94bf 1f3d
000000e0: d6bd 143d 3ab7 763c 0c0f 403d 56cc 6bbd
000000f0: 3c46 93bd a742 a23d f61c 463d f06a e8bc
00000100: e725 413d 4322 f7bc e2bf 893d bbea fcbb
00000110: fe50 8f3d 211f 063d e7ca 903b b391 323c
00000120: 17ec 2a3d 86e3 64bd ff9e 603d 0796 b5bb
00000130: b90d fd3a 9bbd 9e3d 2e92 713c d3a7 d33a
00000140: 6359 0f3d ce48 4bbd 742b 0abd 474f c93b
00000150: ccd0 8c3c ec0f 553d 15ca c93d 407f c7bd
00000160: 0931 073e f745 cabd bf64 613b 50d2 3f3d
00000170: c880 4c3e d929 553c 2ba6 1b3d 232f 723c
00000180: 08c5 58bd abef 2ebc 4ba1 73bc 70ac 11bc
00000190: 05ae fc3c 220f a73c 04bf 5f3d e304 003d
000001a0: 51d5 8dba 6b6e 5dbc 8de8 563c 403e e43b
000001b0: 7af3 9a3d 6b99 033d 67fb 80bd 8a2a 453c
000001c0: 68a6 8b3e 2131 f43d 4ef6 c03d 9a1d 28bc
000001d0: 3e11 d13c 7ea5 ae3d a3b2 c9bd 4923 d73c
000001e0: ad75 533c 4713 463d 1879 ddbc 855e 46bd
000001f0: c478 5cbc 25c5 3e3c 1060 08bd c11c 8f3d
00000200: 0f93 843d 0755 b0bc ea4f 863d b607 cb3c
00000210: 5aa5 a93b fec1 323c 3e91 353b 30fc 2f3d
00000220: a4eb 913c b310 c43c 8aae 1e3d 3013 cdbc
00000230: 6f8c c7bc 77a5 b73d 4b1e 583a cdb5 afbc
00000240: b545 c7bd 6319 82bd f283 67bd bc92 763d
00000250: b98c 77bc 2e27 b2bd cc67 5c3b e28e 2c3d
00000260: 10d9 a7bd 87b1 3fbc 5f4d 0bbd 7b17 0abd
00000270: 7de4 8bbc c37b ab3c 3121 373c b44e 24bd
00000280: 0908 b33d b18b f03d 0317 cebd 1610 d83c
00000290: c7ab 6e3d 706b 873b 944c 93bc cc64 c5bd
000002a0: cacc 113d 8efd 593d 5f88 013b eeb1 953c
000002b0: a9a3 21bd 3cea 50bd deed 15bc c951 e43c
000002c0: fbe0 74bc 927c 4b3d d9eb c73c 6a96 753d
000002d0: 4b29 9bbb 2bbe 263d 61c2 473d b36f 56bc
000002e0: 00de 0d3d e6a9 febc c8e8 343d ebe3 1c3e
000002f0: 327a 023e 98f2 033d 6b55 be3c 2400 8ebd
00000300: ce83 b93d 8145 2e3d 5a6e 113d 5a94 f83b
00000310: 3dba acbc e41b cabc 671a 74bb 86b0 da3c
00000320: ab05 6b3c 99f2 68bd 1874 8a3c a3c8 983d
00000330: 4cd6 9abb 0363 703d 6c30 e2bd b6a1 e23c
00000340: 8236 5ebd c1b2 d9bc d170 4dbd 1c0f bb3a
00000350: c5a4 3f3e 7273 bfbb b8a2 af3d 7c55 213d
00000360: b14a 093d 17f9 9d3b a190 b6bd be37 80bc
00000370: 7fe2 f33c 66f0 26bc 9321 3cbc ce2b 273d
00000380: 42ca 90bc 872c fe3c 778f 0c3d 65c3 fc3c
00000390: 18a7 12bd 10ad 32bc a096 a33c 92c3 e4bc
000003a0: 0c91 f5b9 c635 e83c 9949 a1bc e04c ad3c
000003b0: 94ab 3dbd 085c d83d 3d48 4c3d a22e b1bd
000003c0: f89d 443c 1578 1f3d 16d4 00bd 970c 2abd
000003d0: 1d23 f0bc 2735 eebc 9887 2f3d c1c3 193d
000003e0: 0760 f2bc 0d30 033c 4ecf f6bc 0403 53bc
000003f0: 75d3 993d 9261 8e3d 10cd 6cbc ada8 7abb
-0.00037906325 0.056446828 0.05371084 0.01491885 -0.04840898 0.0005992442 0.1284153 0.23296429
0.026981562 -0.037382606 0.025486121 0.14405766 0.122309335 0.032066006 0.041557994 0.0075135888
0.03856503 0.026816355 -0.030416975 0.00029306547 0.043786116 0.0035489076 0.09205891 -0.0019484685
0.019454239 0.0031619607 0.010708686 0.08206567 0.025631502 -0.0016915427 -0.01607767 -0.08415037
-0.06392865 -0.07890265 -0.0050662486 -0.095324 -0.05184222 -0.113143705 0.017980903 0.029071787
-0.010918701 -0.11164686 -0.090022765 0.010032624 0.015288572 -0.013503635 -0.022796175 0.018125735
0.0012192864 -0.005193062 0.04673796 -0.01968377 -0.019672662 0.021964628 0.029260943 0.039001063
0.036313854 0.015058333 0.04688935 -0.057567917 -0.071911305 0.07922869 0.048367463 -0.028371304
0.047155287 -0.030167704 0.06726052 -0.0077184117 0.0699787 0.03274453 0.004418719 0.010898995
0.04172906 -0.055881046 0.05483913 -0.0055415663 0.0019306458 0.07751008 0.014744325 0.0016148038
0.034997355 -0.04962998 -0.033732846 0.006143484 0.017189406 0.052017137 0.09852997 -0.09741068
0.13202299 -0.09876626 0.0034392325 0.04683143 0.19971001 0.013010466 0.038000267 0.014781746
-0.05292228 -0.0106772585 -0.014869998 -0.00889121 0.030844698 0.020392958 0.054625526 0.03125466
-0.001082102 -0.013515095 0.013116968 0.0069654286 0.07565971 0.032128733 -0.06297951 0.012034068
0.27275395 0.11923433 0.09421979 -0.010260964 0.025520917 0.08527659 -0.098485254 0.026261942
0.012906474 0.048358228 -0.027035281 -0.048429985 -0.013456527 0.011643683 -0.033294737 0.06987906
0.06473362 -0.02152492 0.06558211 0.02478395 0.005177182 0.010910509 0.002770498 0.042965114
0.017812558 0.023933744 0.038740672 -0.025033563 -0.024358956 0.08967107 0.000824426 -0.021448994
-0.097300924 -0.063524984 -0.056522317 0.06019853 -0.0151092345 -0.08698879 0.0033631204 0.04212845
-0.08195698 -0.011700041 -0.034009334 -0.0337138 -0.017076725 0.020933038 0.011177347 -0.04011412
0.08741767 0.11745394 -0.10062983 0.026374858 0.05826929 0.0041326806 -0.017980851 -0.09638366
0.035595693 0.053220324 0.0019765121 0.01827332 -0.03946272 -0.051004633 -0.00915095 0.02787103
-0.014946218 0.049679346 0.024404453 0.0599579 -0.004735147 0.040708702 0.04876936 -0.013088155
0.034635544 -0.031086873 0.04416731 0.15321319 0.12741926 0.032213777 0.02323409 -0.069336206
0.09058343 0.042546753 0.03550563 0.0075860443 -0.0210849 -0.024671502 -0.0037247182 0.026695501
0.014344613 -0.056871984 0.016901061 0.074601434 -0.004725253 0.058688175 -0.11044392 0.027665
-0.0542512 -0.026574494 -0.05015642 0.0014271471 0.18715198 -0.0058426196 0.08575958 0.039388165
0.033518497 0.0048209536 -0.089143045 -0.01565158 0.029771088 -0.010189151 -0.011482614 0.04081326
-0.017674569 0.031027092 0.034316506 0.03085489 -0.035803884 -0.010905519 0.019969285 -0.027925286
-0.0004683811 0.028345954 -0.019688414 0.02115482 -0.046306208 0.105644286 0.04987358 -0.08651473
0.012000553 0.03893288 -0.03145226 -0.041515913 -0.029313618 -0.02907808 0.04285392 0.0375402
-0.029586805 0.008007062 -0.030128147 -0.012879137 0.07511035 0.06952204 -0.014453188 -0.0038247511

decoder.tconv1.transconv.bias f4 [32]
00000000: 0b24 853d e72a 773d b6e2 a23c fabe 393c
00000010: 15b7 6fbb 9a1f a8bc 3df1 ee3c cfb9 983d
00000020: f9b0 3f3d d570 c63b c947 2f3c ef01 8b3d
00000030: a088 76bd 62b1 343d 604d 83bc 2c21 af3d
00000040: 7772 c33d 604c d53d db8a 9c3c d8a8 27bc
00000050: 1359 753c adf2 d73c cf9f 3b3e 663a 6abc
00000060: 732e b33c 80df 8ebb 3203 2e3d a035 f13c
00000070: fddb d03d d151 623d 83e8 0bba be7d 583d
0.06501015 0.06034365 0.019883495 0.011337036 -0.0036577631 -0.020522881 0.029167766 0.07457315
0.046799634 0.006055931 0.010698267 0.06787478 -0.06018889 0.044114478 -0.016028106 0.08551249
0.09543317 0.10414958 0.01910918 -0.010233127 0.01497485 0.026360834 0.18322681 -0.01429615
0.021872735 -0.0043601394 0.042483516 0.029444516 0.101982094 0.055253807 -0.0005337076 0.052854292

decoder.tconv2.transconv.weight f4 [32, 32, 5, 5]
00000000: 6e9c 07bd afda 663d 112f 363d 27b0 0fbd
00000010: a0d1 41bc 2b45 34bd 96d2 c83d a108 473d
00000020: ee92 793d ba45 c63c b147 973d 79ac 633d
00000030: e1b9 31be 5502 ba3d 5f52 153d 1d44 1b3d
00000040: 967b 34bd 0c40 553d f7ea 2e3d 8597 803d
00000050: f595 063d 52af 703d 7e16 6d3c 01e9 cdbd
00000060: 2afd 6a3c 500d ca3d 373d 5f3d efa3 f83c
00000070: 9d44 5cbd c6e1 3dbd ac3d 1cbb 22e3 7c3d
00000080: fb3e 0b3e 1b31 9bbb e25c b53d c382 25bd
00000090: d600 29bc 1a15 f33d 0b0e 1c3e d90e c03d
000000a0: f853 d3bd 6dee 34bc c431 bebd 2e1f 32be
000000b0: c62e 8239 ba92 173c d16f 32bc def9 80bb
000000c0: 20d2 71bd fa19 8bbd 543a 313d eccd 08bd
000000d0: 06ca e5bd 3dfa 29bb 6a64 273c 57d3 d0bc
000000e0: f618 91bc e3db 043d 9bc2 cc3d c414 053d
000000f0: 7a51 4d3c f771 a5bc 10c0 693e bef6 a03d
00000100: 01a5 8abd 34bc 32bd feed 43bd 2f1c 693e
00000110: 5bea 173e 0850 e53d 3fae 283c b49b debc
00000120: 5b6a c23d 5654 9bbd e8dc bc3d a975 5c3d
00000130: 5b24 253c 5ad8 6dbd 16c9 363c a6e2 373d
00000140: ac92 10ba d246 46bd 9a8a c63d 3700 2e3d
00000150: f2e4 71bd 7fc9 faba b8ef c93d 7ca5 643e
00000160: 7edd bfbd 78bf adbb 15f0 0fbc 1983 5dbd
00000170: 7beb 92bb 3868 733b 61a3 80ba c1c0 33bd
00000180: 0127 203d cf05 07be 8611 cd3d 924d a83d
00000190: 99a6 073c 36eb 4fbd aa0a 613d 050d bb3c
000001a0: d47a 3abd 22fa 3f3b 11de c13d c657 af3d
000001b0: d8be 433d 6b98 b13d 91ea f3bb d7b3 933d
000001c0: 0838 0abe e66f 09bd f64b 553d fe2d 13bd
000001d0: 2c4e c13c 2403 023b d564 293e e779 283c
000001e0: af00 60bd 1eee 493d 49c3 5d3d 80be 9d3d
000001f0: 2077 a03a 78ba ff3b 2a05 c2bc 4f58 a43d
00000200: c157 b6bd 6180 163d 0188 383d 5e62 a3bb
00000210: 1988 18bc f202 bcbd 4877 b1bd 01f3 6ebd
00000220: 9f97 ad3c 5938 ff3d e03e 55bd 43b6 91bd
00000230: 37a2 1dbd 2803 43bd 3ebc 563d 0f9c abbe
00000240: e3ce b0bd 4854 813d 1b9a 0abd 9409 743d
00000250: e4cf 3bbc 1d12 aeba 5225 623d 9792 843d
00000260: 6797 a43d 8d27 383d 7cb0 2f3b 8f5d 57bb
00000270: 8bb8 e4bd 03cb 473d 4797 1b3d 7739 203d
00000280: 05ce b53d eb35 9d3d 8ec1 763d 5879 403d
00000290: d872 7f3d a521 803d cf9f c6bc 84b9 aebd
000002a0: 9a30 0c3d daa8 573d 3bcb df3c 984e 8e3b
000002b0: d1d6 d93c 9a55 8a3d dfa0 97bc 3989 9a3c
000002c0: c06e 65bd 3c7b 043e 68eb aebc b9fb 323c
000002d0: 9483 08bd afe0 f1bd 6644 dd3d 6ac3 22bd
000002e0: 950c 22bc a28b 603c 7491 af3d a789 383e
000002f0: 0ce7 083e 68c4 a73d 4d85 463d 7c1a ccbd
00000300: 930f 763e b402 863d 972c 943d 12b2 263b
00000310: b08a af3c 510d 1e3e ce79 763d d1a4 7b3d
00000320: c61e 32bc 3a53 883c dbb3 c03a ead9 80bc
00000330: 12fd 8d3a 8b07 e3ba 4277 ae3d 947f 243d
00000340: 5057 febd a36d 803d d29a c53d 74e2 df3c
00000350: 2da2 f1ba 698e 63bd e194 983d 12f8 77bc
00000360: 00c2 c2bd 7503 f7bd 4d8e dd3b 6f4c f0bd
00000370: 165a 183d faa9 83bd 09fa 673d ec7e 433c
00000380: d5ad 89bd 0922 89bc e612 103d 4b2e 033d
00000390: 948c b53d 3121 883c 0709 9c3d 303b ad3d
000003a0: eb26 073e c165 863d 3716 b63d 38be 24bd
000003b0: ba5a 38bd 4c66 84bc e232 ad3d a8f2 81bc
000003c0: 00c5 c13b f1ff 133d ed1b c53b 1b29 153e
000003d0: 8ac7 a93d 8817 263c 07f2 1f3c 4fcf 533d
000003e0: 9cf1 153d 10d4 51bc aa5d 293b 9fe0 1abd
000003f0: d873 d43c f1d2 5abd 494d 45bd 6377 1bbc
-0.033108167 0.056360897 0.04447848 -0.0350801 -0.011829764 -0.044011276 0.09805791 0.048592214
0.06093114 0.02420317 0.07386721 0.055584405 -0.17356063 0.09082476 0.03645551 0.037906755
-0.044063173 0.052063033 0.04270455 0.062789 0.032857854 0.05876095 0.014470695 -0.100542076
0.014342586 0.098658204 0.05450174 0.030351607 -0.053776372 -0.046357892 -0.002384047 0.06174005
0.13598244 -0.0047360784 0.088556066 -0.040407907 -0.010315141 0.11869259 0.15239732 0.09377832
-0.1031875 -0.011043173 -0.09286836 -0.17394707 0.0002483038 0.009251291 -0.010890917 -0.0039360365
-0.05903828 -0.06792064 0.043268517 -0.033399507 -0.112201735 -0.0025936507 0.010216812 -0.0254914
-0.017712098 0.032436263 0.099980555 0.032490507 0.012531633 -0.020195944 0.22827172 0.07859562
-0.06769753 -0.043636516 -0.04783439 0.22764657 0.14835493 0.111969054 0.01029545 -0.027173854
0.09492942 -0.07584445 0.09221822 0.053823147 0.010079469 -0.058067657 0.011156341 0.044893883
-0.000551502 -0.048407383 0.09694405 0.042480674 -0.05905623 -0.0019133537 0.09860176 0.22328752
-0.09368418 -0.005302366 -0.008785267 -0.054080103 -0.004483638 0.0037140977 -0.0009814316 -0.043884996
0.039099697 -0.1318581 0.10013108 0.0821792 0.008279466 -0.050761424 0.05494181 0.022833357
-0.045527294 0.0029293378 0.09466184 0.08561663 0.047789425 0.086716495 -0.007443734 0.07212036
-0.13497937 -0.03355398 0.052074395 -0.035932533 0.023596846 0.0019838298 0.1654237 0.01028297
-0.054688152 0.049299352 0.054141317 0.077023506 0.0012242533 0.007804211 -0.023684103 0.08024656
-0.089034565 0.036743525 0.04505158 -0.0049860915 -0.009309792 -0.09180249 -0.08665329 -0.058337215
0.021190463 0.12461919 -0.052061915 -0.07114842 -0.03848478 -0.047610432 0.052425615 -0.335175
-0.086332105 0.063149035 -0.033838373 0.059579447 -0.011463139 -0.0013280545 0.055211373 0.06473272
0.0803669 0.044959594 0.0026808074 -0.0032862162 -0.11168011 0.04877759 0.037986066 0.039117303
0.08877186 0.076763 0.060243182 0.046990722 0.062365383 0.06256417 -0.024246125 -0.08531478
0.034226038 0.052651264 0.027318588 0.004342865 0.02659169 0.067546085 -0.018509327 0.018864261
-0.056013823 0.12937635 -0.021352485 0.010924273 -0.033328608 -0.11810433 0.108040616 -0.039737143
-0.009890695 0.013705166 0.08572665 0.1802126 0.13369387 0.081917584 0.04846697 -0.09965989
0.24029379 0.06543484 0.07235067 0.0025435728 0.021428436 0.15434767 0.060174756 0.061436478
-0.010871595 0.016641248 0.0014702039 -0.01572891 0.0010832867 -0.0017320974 0.085188404 0.04016073
-0.12418997 0.062709115 0.0964867 0.027329661 -0.0018435173 -0.055555735 0.074502714 -0.015134828
-0.09509659 -0.12061206 0.0067613483 -0.117333286 0.037195288 -0.06428905 0.056634936 0.011932116
-0.06722609 -0.016739862 0.035174273 0.03202657 0.08864704 0.01661739 0.07618909 0.08458555
0.1319844 0.06562377 0.08890956 -0.04022047 -0.0450084 -0.01616206 0.08456971 -0.015862778
0.005913377 0.036132757 0.006015292 0.14566462 0.08290012 0.010137446 0.009762294 0.051711377
0.03660737 -0.012806907 0.0025843182 -0.03781187 0.025934145 -0.053423826 -0.048169408 -0.009488913

decoder.tconv2.transconv.bias f4 [32]
00000000: 4431 fb3c 3cfc ddbc d901 ecbc bbfa 03bb
00000010: 6694 a53d b62c 033e 7968 66bc 2158 7d3d
00000020: 8ddd 9f3d b1c8 29bd 96ee bbba 12ee ae3c
00000030: 2a9b 403d 72d3 4f3d 6211 a53c 947a 1e3d
00000040: 6af4 11bd 89c2 eb3d 1590 9e3d 171e 9f3d
00000050: c48b 7f3c 27f9 753d a88d 683d f0e2 103d
00000060: 8ffc 353d 9071 a0bc 4ea9 e3bc 7f89 0b3d
00000070: 637e cf3d 10a0 713d 474e ac3d 291b 01bd
0.03066314 -0.027097814 -0.028809475 -0.002013846 0.080849454 0.12810025 -0.014062994 0.061851624
0.07805929 -0.04145116 -0.0014338072 0.021353755 0.047022976 0.05073876 0.02014989 0.03869112
-0.035633482 0.11511714 0.07742325 0.07769411 0.015597288 0.060052063 0.05677572 0.035372674
0.04443031 -0.0195854 -0.027790692 0.034066673 0.10131528 0.058990538 0.08413368 -0.031520043
